…
Average actions of items: 59.45303210463734
The number of inters: 100000
The sparsity of the dataset: 93.70575143257098%
Remain Fields: ['user_id', 'item_id', 'rating', 'timestamp']
Tue 04 Feb 2025 19:06:25 INFO  [Training]: train_batch_size = [2048] train_neg_sample_args: [{'distribution': 'uniform', 'sample_num': 1, 'alpha': 1.0, 'dynamic': False, 'candidate_num': 0}]
Tue 04 Feb 2025 19:06:25 INFO  [Evaluation]: eval_batch_size = [4096] eval_args: [{'split': {'LS': 'valid_and_test'}, 'order': 'TO', 'group_by': 'user', 'mode': {'valid': 'full', 'test': 'full'}}]
Tue 04 Feb 2025 19:06:25 INFO  SMLPREC(
  (item_embedding): Embedding(1683, 4, padding_idx=0)
  (feature_embed_layer): FeatureSeqEmbLayer(
    (token_embedding_table): ModuleDict(
      (item): FMEmbedding(
        (embedding): Embedding(2627, 4)
      )
    )
    (float_embedding_table): ModuleDict()
    (token_seq_embedding_table): ModuleDict(
      (item): ModuleList()
    )
    (float_seq_embedding_table): ModuleDict(
      (item): ModuleList()
    )
  )
  (layers): ModuleList(
    (0): SMLP(
      (c): Sequential(
        (0): Linear(in_features=4, out_features=12, bias=False)
        (1): GELU(approximate=none)
        (2): Dropout(p=0.5, inplace=False)
        (3): Linear(in_features=12, out_features=4, bias=False)
        (4): Dropout(p=0.5, inplace=False)
      )
      (h): Sequential(
        (0): Linear(in_features=50, out_features=150, bias=False)
        (1): GELU(approximate=none)
        (2): Dropout(p=0.5, inplace=False)
        (3): Linear(in_features=150, out_features=50, bias=False)
        (4): Dropout(p=0.5, inplace=False)
      )
      (w): Sequential(
        (0): Linear(in_features=4, out_features=12, bias=False)
        (1): GELU(approximate=none)
        (2): Dropout(p=0.5, inplace=False)
        (3): Linear(in_features=12, out_features=4, bias=False)
        (4): Dropout(p=0.5, inplace=False)
      )
      (norm2): LayerNorm((4,), eps=1e-05, elementwise_affine=True)
    )
  )
  (LayerNorm): LayerNorm((4,), eps=1e-12, elementwise_affine=True)
  (loss_fct): BPRLoss()
)
Trainable parameters: 32448
